classifying-names-with-rnn.pt (torch_old, 110840 bytes, 4 tensors)

weight f4 [128, 186]
00000000: 75be b83e 44c3 13bd ee43 01be 16f2 b83d
00000010: cd7c 79be 2e0b f6bd 996c 743d 5bf4 88be
00000020: da24 833e 407d 8bbe 61e6 2a3e 59a5 2cbd
00000030: 883a 033e 3d91 62bd 5a15 263e d70d 12bd
00000040: 8d59 a03d edfd ec3d 9e36 d93e e359 873d
00000050: c2fa d5bb 58e1 2fbe 6677 21bc 0743 563d
00000060: 2c77 e13d 40e1 eaba 523b 153e edd3 eb3d
00000070: 2b75 3e3d bd5f 9c3c dda5 e23c f9df 8fbd
00000080: 74a9 573c 3918 36be 2ba6 213e b6a5 d0bd
00000090: 7447 30bd 16ef d4be 4a3d 2d3d dda2 ab3d
000000a0: 1039 443c c889 49bd 53fe a2bd 2e6b c1be
000000b0: 0342 5f3b 6d47 963d f871 a43d c26e 56bd
000000c0: 8fa6 a43d c8ab 74bb 5bbf b5bd b002 09bc
000000d0: 6368 1a3d 5140 8d3d 60e9 f0bb 0b25 32bd
000000e0: 25e7 e4bd 051b 893c 1769 babc 86ba 6e3d
000000f0: 5f89 a03d 3237 ffbc 422d 28bd 9830 b03d
00000100: b8e6 24bd c061 5e3d c977 73bb 5e6a 4cbd
00000110: 26a7 8bbd 17dc cc3d 81d8 d2bc 4392 f33d
00000120: b05c d0bb 5e7a fbbd a54d a0bd 5bfc dcbb
00000130: 3dd0 72bc c445 0bbb c8a1 52bd 7850 0abd
00000140: bf80 9dbd e942 673d 0a9c 6cbb a62a 313c
00000150: 0328 533c 127e 2dbd 3c9d 493d e434 993d
00000160: 43d3 cdbc b24e a0bc 334c 9c3d ab3c 3abd
00000170: c5da 89bd c6de 803d 4960 903d 2941 f93d
00000180: 1094 8bbd 3deb 2f3e 26c7 183c 80ce bebd
00000190: 7fb4 9f3c 797e a2bd 115c 293d e3dd 053d
000001a0: 6ed7 f5bc 4d8c 42bd 329a b13c 4a4c b6bd
000001b0: 969d 843d fd8a 91bd 8a24 6ebd 7b34 023e
000001c0: 91d5 c1bc 13ab ab3b 78d1 14be 5263 96bc
000001d0: 44c1 dd3d 28cb 8a3d cf8d 91bd 984e 6d3d
000001e0: c314 25bb 6b77 1fbc aee5 213d 1ac9 bdbc
000001f0: cb1a 1c3d 56f4 4cbc 6d2d 71bd b791 55bd
00000200: c14a cf3d b63a 88bd 0507 d9bc 06df 153d
00000210: ff0f ccbd f464 f63b 2685 76bd 7da4 27bd
00000220: 39ae c93c d645 f8bd 10cc 773d 1927 1dbd
00000230: 124b 643d 0d33 7bbc aa02 583d 90fe e4bd
00000240: 9bef a93d 6469 d03d 237f b2bc fa32 4c3d
00000250: 4710 5dbd 6f27 ea3d 30b5 4dbd 9082 7d3d
00000260: 6d6a 873d cace f03c 4ca4 903d d194 28bc
00000270: d335 f13c daea 9e3d 279e 143e e655 fd3c
00000280: 4bd0 b83d 828f 86bd 31ca b53d 76a5 193d
00000290: 5dd2 123e 425c 053e eed5 a0bd 9839 7e3d
000002a0: 8c49 3aba 79bb 003c 2c38 f73d ac92 ac3d
000002b0: 0a46 c73c 55fb b4bd 403a 043e a969 01bd
000002c0: ef11 cb3d d827 323c 82df f3bc d992 b13d
000002d0: 1498 db3c be03 ad3c 25ae 673d 5194 1d3d
000002e0: a116 12be adf7 82bd e055 50bd 3375 b73d
000002f0: a6f7 d03d 529a 513c 469a bcbd 77ef 0dbe
00000300: 8966 2a3e 1619 94be 9046 debd e91f 2d3d
00000310: a6ef 2fbe 070c 88bc 1888 413d 4a5e 153c
00000320: 29d5 6c3d 5b38 893d 24aa df3c d967 dcbc
00000330: 8609 c93d 91a6 3eba c81e 4abe 7531 83bd
00000340: 068f d33d a007 953d 72db af3c fb9c 533e
00000350: f2ad e13d 8274 22bd 47ea 2c3e 92c5 a7bb
00000360: 8779 403d 6ba7 26bc 63fd 1c3d 6f87 49bd
00000370: 1e65 27be 26a0 093c 7ef0 30be 1d9b fc3c
00000380: 5461 f1bd fe5f 823d dbbe 3abd 1dee ce3d
00000390: 5676 debc 4e0e 783e 9aa6 ddbb 3763 f1bc
000003a0: 56d5 963c 4858 35bd 8710 173e 70eb bfbd
000003b0: 67ad f63c 848c d33d abe6 cf3d b078 6ebd
000003c0: a51c 02bd 596c 90bd 3b51 a6bd 29ef b6bd
000003d0: 6e92 3d3d f024 5cbc 2870 3fbd 025a eabc
000003e0: 37c3 8dbd db19 3e3d e2c4 1d3c 6f99 42bc
000003f0: a70c cebc 3767 3fbd 3240 063d 8f00 88bd
0.36082807 -0.03607489 -0.1262357 0.09030549 -0.24364014 -0.12013851 0.05967388 -0.26748928
0.25614053 -0.27243996 0.16689445 -0.042149875 0.12815297 -0.05531429 0.16219082 -0.03565773
0.078295805 0.1157187 0.42424482 0.066089414 -0.006530137 -0.17175806 -0.009855127 0.052310016
0.11009058 -0.0017919913 0.1457341 0.11515031 0.04649846 0.01908862 0.02766698 -0.07025141
0.013162959 -0.17782678 0.15786044 -0.10187857 -0.043036893 -0.41588658 0.042294778 0.08380673
0.011976495 -0.049203664 -0.07958665 -0.37777084 0.0034066446 0.07337842 0.0802955 -0.05235172
0.08039581 -0.0037333835 -0.08874389 -0.008362457 0.037697207 0.06897033 -0.007352039 -0.04349236
-0.111769 0.016736517 -0.022755189 0.05828335 0.078387015 -0.031154249 -0.041058786 0.086030185
-0.040259093 0.05429244 -0.0037150255 -0.049906127 -0.068189904 0.10002916 -0.025738003 0.118931316
-0.0063587055 -0.12279199 -0.078273095 -0.0067439503 -0.014820156 -0.00212513 -0.051423818 -0.033768147
-0.07690572 0.056460295 -0.0036103749 0.010813391 0.0128879575 -0.04235656 0.049222216 0.07480791
-0.025125152 -0.019568775 0.07631721 -0.045468014 -0.0673118 0.06292491 0.07049615 0.121706314
-0.0681535 0.1717958 0.009324824 -0.093167305 0.019495247 -0.07934279 0.041347567 0.03268231
-0.030009951 -0.047497083 0.021679971 -0.0890127 0.0647537 -0.07106588 -0.058140315 0.12715332
-0.023661407 0.0052388995 -0.14533031 -0.018357906 0.10827878 0.0677703 -0.07107126 0.05793628
-0.0025189377 -0.009733061 0.03952568 -0.023167182 0.03811149 -0.012509426 -0.058881212 -0.052140918
0.1012168 -0.06651823 -0.026492605 0.036589645 -0.099639885 0.007519359 -0.060185574 -0.040928353
0.024619209 -0.12122695 0.060497344 -0.038367365 0.055735655 -0.015331996 0.052736916 -0.111813664
0.08297654 0.10176352 -0.02178914 0.049853303 -0.0539706 0.114333026 -0.050221622 0.061892092
0.06612096 0.02939548 0.07062587 -0.010289387 0.02944461 0.07759638 0.14513455 0.030924749
0.09024104 -0.06570341 0.088764556 0.03751131 0.1433806 0.13023475 -0.07853304 0.062066644
-0.0007106296 0.007857197 0.12071261 0.08426413 0.02432539 -0.08837 0.12912846 -0.031594906
0.0991553 0.010873757 -0.029769663 0.08670587 0.026805915 0.021119948 0.05656256 0.038471524
-0.14266445 -0.06394897 -0.050863147 0.08957901 0.10203485 0.0127931405 -0.09209113 -0.1386088
0.16640677 -0.2892539 -0.108533025 0.04226676 -0.17181262 -0.016607298 0.04724893 0.009116719
0.057820473 0.06700202 0.027302809 -0.026904987 0.098162696 -0.0007272745 -0.19738305 -0.064059176
0.10330014 0.07276845 0.021466944 0.20665352 0.110195056 -0.03966189 0.16886245 -0.0051199878
0.046990898 -0.0101717515 0.038327586 -0.049201425 -0.16347167 0.008399999 -0.1727924 0.030835683
-0.11786142 0.06365965 -0.04559217 0.1010401 -0.027156036 0.24224207 -0.006764245 -0.029466255
0.018412273 -0.044273645 0.14752398 -0.09371078 0.030111982 0.103295356 0.10151418 -0.058220565
-0.0317656 -0.07051916 -0.08120962 -0.08932335 0.046282224 -0.013436541 -0.04673782 -0.028607372
-0.06922 0.046411376 0.00962946 -0.011877402 -0.025152517 -0.046729293 0.032776065 -0.066407315

bias f4 [128]
00000000: 2de3 24be 5053 ffbc 0723 35bd 7091 a23d
00000010: 6a80 be3d 7005 dc3d ef9e 783b 3d70 68bd
00000020: e783 e83c 7a52 0bbe 1b0e 3fbd 18d1 ba3d
00000030: b15a f6bd 370d 553d 6ce9 d23c 72ea e9bd
00000040: 20d2 4ebd ace7 23bd 21e4 1a3d 12d0 bb3c
00000050: 7684 c2bd 957f 8d3d e7c8 7e3d a034 073d
00000060: 1ce6 f03c 26a5 b93d a8be 1f3c fc25 38bd
00000070: e0cb ef3d f253 7f3d 13a9 b33d c17b 803d
00000080: c695 a3bd 6fe9 153d 9ec8 9ebc 809c ca3d
00000090: 056a 4fbc bf92 1fbe 6c17 273d 21e3 523c
000000a0: 9f23 873d ff6b b43d fa63 ebbd 8a6b 69bd
000000b0: 0eaa 7a3a 5c55 7ebd 21f6 ab3d d294 6a3d
000000c0: 87fe c73d 1fc4 4cbd f1e5 21bd 5b1a 563d
000000d0: 50d9 a43c 931d 37bd d365 b3bd f527 97bd
000000e0: 0e22 0cbc 93ea b63d 04c3 4c3c 0d88 3d3d
000000f0: b326 8ebc cedd 633c bf2a 453c 7609 9abc
00000100: 89e9 76bd 850b 86bc 390f 10bc cd45 96bd
00000110: cfa6 c3bc 5e67 a1bd b3f3 1c3e ceed 39bd
00000120: f26d e2bd eb6b bd3b 648c 7dbc 1b48 c2bc
00000130: b628 14bd 7bb1 ab3c 4dce 6c3e c2f8 5d3d
00000140: f050 f4bc 97f5 1abd dbd3 80ba 0215 493d
00000150: 07b6 dc3c a388 81bd fd22 373c 167f e2bd
00000160: 73ea 9bbd bae3 b03d 630a 163a 10a1 1d3d
00000170: 8c4c 963c d966 cb3b f319 f93d 596f 94bc
00000180: 6937 ad3c d2e4 743c 9aff 57bd dd6b 1f3c
00000190: 579f aa3d 26d0 4cbd c2e5 943d 7add 943c
000001a0: edfc 1dbd 5724 9bbd 7b4b 493c 079a 213d
000001b0: d53d 263d ab7f 993d 3f7c 183d 4e4c f03b
000001c0: 52cf a13c 7c5e 9fbc 7aa9 863c f131 183d
000001d0: 85c5 a4bd 24b9 7cbd ae6c aa3c d8c8 15bd
000001e0: dfd9 aebc 8e88 da3c 9c64 213c 4822 7cbd
000001f0: 4401 4fbd c8b2 a23c 0e26 a8bd 9c3b 55bb
-0.16102286 -0.031167656 -0.044222858 0.07937896 0.09301837 0.107432246 0.0037936529 -0.056747664
0.028383208 -0.13605681 -0.04664431 0.09121913 -0.12029017 0.052014556 0.02574607 -0.1142167
-0.05049336 -0.04001586 0.037815217 0.022926364 -0.09497921 0.069091 0.062203314 0.03300917
0.0294066 0.09064703 0.009750046 -0.0449581 0.11708808 0.062335916 0.08772483 0.06273604
-0.079875514 0.036599573 -0.019382771 0.09893131 -0.012659554 -0.15583323 0.04079382 0.012871535
0.06598591 0.08809661 -0.114936784 -0.056987323 0.0009562083 -0.062093124 0.08396555 0.057270832
0.09765344 -0.049991723 -0.03952593 0.05227123 0.020123154 -0.04470594 -0.08759656 -0.07380668
-0.008553041 0.0893146 0.012497667 0.046272326 -0.017352438 0.013907863 0.012034117 -0.01880334
-0.06028131 -0.016362915 -0.008792692 -0.07337532 -0.023883251 -0.07881044 0.15327339 -0.045392804
-0.11056127 0.005780687 -0.015475366 -0.023716023 -0.036171637 0.020958653 0.23125573 0.054192312
-0.02982375 -0.03783187 -0.0009828763 0.0490923 0.026942266 -0.063248895 0.011177775 -0.11059396
-0.07613077 0.086371854 0.00057235936 0.03848368 0.018347047 0.0062073288 0.121631525 -0.018119501
0.021144586 0.014947133 -0.052733995 0.009730306 0.08331173 -0.050003193 0.07270385 0.018172015
-0.038571287 -0.07575291 0.012286062 0.039453533 0.04058631 0.07495054 0.037227865 0.007333315
0.019752178 -0.019454233 0.016438235 0.037157003 -0.08045486 -0.0617 0.020803776 -0.036568493
-0.021344123 0.026676442 0.009850647 -0.06155613 -0.050538316 0.01986064 -0.08210383 -0.003253675

weight f4 [18, 186]
00000000: 6fc4 51bf a355 fdbd 7bee 6cbe 40df 32be
00000010: dc65 473e 1471 28be 4127 3bbd 9803 21be
00000020: db7f 46bf b0de 6e3e e9cf b73e deb3 6d3e
00000030: c188 f43e 9e83 a03f 736f 63bf 0ae2 7e3e
00000040: 4eec a73c edca f13e 108c 443f 62d4 fa3e
00000050: 98be aebe b29c c7be 2848 63bd 528c 223e
00000060: 4593 01bf 1b24 d2be 3cb6 e0bc d4cd f03a
00000070: 67bb 8a3d dc9c c33c 105e 41bd a4cb b83c
00000080: 48ba cabc d63e 0a3d b85e 463d abcd 28bd
00000090: 5d7a 8a3d 7aef 133d fb19 4ebd aa47 4d3d
000000a0: 4151 83bc 23af 833d d07c 373d 1807 e23c
000000b0: 80b2 993a 784e 5abd 94f8 f93c 4d3d 80bd
000000c0: 58a8 2dbc 33d7 11bd 7451 84bd 38b7 83bd
000000d0: fa50 20be 3a9d 273d 7f92 55bd 7234 0c3d
000000e0: 1c88 3d3d fb39 90bd cb68 2ebe e8af acbd
000000f0: c949 0b3d ac0e 433d 8210 50bd 9a39 73be
00000100: 496e 5f3e 9703 50bd 41e2 813e 0bd6 903d
00000110: 17c2 05be 3884 673c 53fe 87bd 2495 8a3c
00000120: c2e1 6e3d 7de8 353e a470 92bd ba03 9c3d
00000130: 8df4 a63d 96d9 943e dfdf 4a3e ff90 103e
00000140: ed69 9abc 8b04 64bc fd61 e53d c814 163d
00000150: 2933 14be 615d 2a3d 2a99 653e 99c2 dc3d
00000160: 7200 24bc 0e3b a6bd 0b88 34bd 626d c8bd
00000170: aaba 243e 5955 52be 568a cd3d 4a82 633e
00000180: 8d44 133e ed09 9a3e 8bb1 07be 7df0 08be
00000190: 8514 9bbd 49d0 9bbd 86f5 55bd 5b34 7f3d
000001a0: 9815 273e a601 093e ed9b ba3d a5d1 febc
000001b0: 93a1 e13c d2ee 8f3e f547 083d 24e4 a23d
000001c0: c1c3 513e c150 0a3e 2c80 203e b808 a6bc
000001d0: 45dd bfbc 75d1 3cbe fe9f ddbd f6a0 763d
000001e0: 5d6e e4bd a860 803c 35e1 613e abc5 6a3e
000001f0: 9577 53be 3d32 d8bd 40f3 c23d dd4c 41be
00000200: 8130 203e ded4 d23d 3523 c33d 37b4 70be
00000210: 9146 95bc 37b9 0d3e 8917 bebd d024 30bc
00000220: 0cce 9a3b 4ec9 3b3d efe0 a7bd d35a fdbb
00000230: bac6 21bc b40a 41be bf04 9c3d 9491 163d
00000240: 45d5 553e 6804 ff3d af74 773d 76dc b43d
00000250: 2e75 50be ada5 63bb 813b f8bd 8376 673c
00000260: 6d70 3c3e f9be 8ebd ac6e 5cbe 7747 453c
00000270: 11c3 283e 9d62 85be f5d6 e53d 4796 6e3d
00000280: 665d 893e 9df1 3f3c bbc2 053d 5f2c ca3c
00000290: 538f babd c92d e3bd 0fbc 9fbe f02a 6c3d
000002a0: f076 963e 7dd5 47bd cb41 97be a0f0 ba3d
000002b0: 3f7b 04be e170 b03d 7621 6abd 542b cdbe
000002c0: ff52 d83d fd24 713e 7c0c 81be e5f0 173e
000002d0: 4eb2 85bd 77e0 863e 8bf8 7d3e 1c5e 84bd
000002e0: b51c cabd fff0 eb3d b3d2 a0bf 0c20 8f3d
000002f0: 0436 3dbe 3ff5 ab3e 4f42 643d 3e56 1f3e
00000300: 7f84 663e 61d9 3f3e 9176 21bf a94b 84bd
00000310: c140 11be e7a7 fd3e d069 22bd 7716 023f
00000320: 14f2 5cbf fad2 e33d 5b9e 5abc f750 ec3f
00000330: 3877 5cbe 9a61 103f acdc 76be 7484 89be
00000340: 653e c5bc 2da6 aebd 3f86 33bf d2e8 323f
00000350: 04c0 a73c 12bc d93c 5e57 643d 84cf 943c
00000360: b8f3 ad3c b8c2 9b3c 26d0 6b3d 406b 0abc
00000370: 787c 0bbd 1033 fd3b 1089 2e3c c895 653c
00000380: 0236 37bd 04da 8b3c 40db 26bd 8044 8e3c
00000390: 438c 953d c444 fc3c 44b4 47bc dcec 7bbd
000003a0: 806f 983b f460 51bc c18b 8abd 69e7 893d
000003b0: ae1f 383d 6845 4fbd 166c d0bd 34b9 6fbd
000003c0: 19ed 743d 9264 8ebd e520 903d c69e 773d
000003d0: 2b7c cdbd 75ac b4bc 4f22 083d c2ee e63d
000003e0: 006f 78bd caee 85be 1c72 933d 8abf 5fbd
000003f0: 2943 823e 87c4 c1bd 45ea 27be 6935 6f3d
-0.8194036 -0.123698495 -0.23137848 -0.17467976 0.1947245 -0.16449386 -0.045691732 -0.15724027
-0.7753884 0.23327136 0.3590081 0.23213145 0.47760585 1.2540166 -0.88841933 0.24890915
0.020498421 0.47225133 0.7677622 0.4899016 -0.34129786 -0.38986737 -0.055488735 0.1587384
-0.5061534 -0.4104317 -0.027430646 0.0018371888 0.067740254 0.023878507 -0.047208846 0.02255804
-0.024747029 0.03375133 0.048430175 -0.041211765 0.0676162 0.036117055 -0.050317746 0.050117172
-0.016029956 0.06429889 0.044796765 0.027591273 0.0011726171 -0.05329749 0.03051404 -0.06261692
-0.010599218 -0.03560562 -0.064608485 -0.064314306 -0.1565589 0.040921427 -0.052141663 0.034229703
0.046272382 -0.07042309 -0.17032163 -0.08431989 0.034005914 0.047621414 -0.050796993 -0.23752442
0.21819414 -0.050784674 0.2536793 0.070720755 -0.1306232 0.0141306445 -0.06640305 0.016916819
0.05832077 0.17764468 -0.07150391 0.07617898 0.08152113 0.29072255 0.19811963 0.14117812
-0.018849337 -0.013917099 0.112003304 0.036640912 -0.14472641 0.04159296 0.22421709 0.10779304
-0.010009872 -0.081167325 -0.044075053 -0.09786488 0.16086832 -0.2054037 0.10036151 0.2221767
0.14381619 0.30085698 -0.13251321 -0.13372989 -0.07572273 -0.076080866 -0.052236103 0.06230579
0.16316831 0.13379535 0.09111772 -0.031105826 0.027542865 0.28111893 0.03327175 0.079536706
0.2048483 0.13507368 0.15673894 -0.02026783 -0.02342094 -0.18439277 -0.10821532 0.060212098
-0.111538626 0.01567109 0.22058566 0.22926967 -0.20651086 -0.10556457 0.095190525 -0.18876977
0.15643503 0.102945074 0.095281996 -0.23506247 -0.018222125 0.13840185 -0.09281833 -0.010750964
0.0047242697 0.045846276 -0.081971996 -0.0077317744 -0.00987404 -0.18851739 0.07618093 0.036759928
0.20882137 0.12452012 0.060414013 0.08831112 -0.203572 -0.0034736202 -0.121207245 0.0141273765
0.18402262 -0.06970019 -0.21526593 0.012040964 0.16480662 -0.26051798 0.112226404 0.058248784
0.2682907 0.01171532 0.032656413 0.02467936 -0.09109368 -0.11092717 -0.31198165 0.057658136
0.29387617 -0.048787583 -0.29542384 0.09127927 -0.1293764 0.0861528 -0.057160817 -0.4007212
0.10562705 0.23549266 -0.25204837 0.14837988 -0.065281495 0.26343128 0.24801843 -0.064632624
-0.09868757 0.11520576 -1.25643 0.06988534 -0.18477637 0.33585545 0.0557273 0.15560243
0.22511481 0.18735267 -0.6307154 -0.064597435 -0.14184858 0.49542162 -0.039651692 0.5081553
-0.8630688 0.11124225 -0.013343419 1.8462209 -0.21529853 0.5639893 -0.24107617 -0.26858866
-0.024077604 -0.08527789 -0.7012672 0.69886506 0.020477302 0.026578937 0.055747382 0.018165357
0.021234378 0.019013748 0.057571553 -0.008448422 -0.03405425 0.0077270344 0.010652795 0.014012761
-0.04472924 0.017071731 -0.040736437 0.017366648 0.073021434 0.030794509 -0.012188975 -0.061505184
0.0046519637 -0.012779463 -0.06764937 0.06733591 0.044952087 -0.0506033 -0.10176866 -0.058526233
0.059796426 -0.06952776 0.07037524 0.060454153 -0.10033449 -0.02205489 0.033235844 0.11276008
-0.060652733 -0.26158744 0.07199499 -0.054626025 0.25441864 -0.09461313 -0.1639796 0.058400545

bias f4 [18]
00000000: fef6 083d 2a87 bc3e b718 86bd 4884 dcbe
00000010: c08d 88bf 4e77 f1bc 7381 803d 1479 893d
00000020: 5802 523f 4cda 7d3e aeb5 0a3f d108 0bbf
00000030: b862 ffbd 4351 63be c5e9 213e a8de 7fbe
00000040: b206 1b3e bf44 023f
0.033438675 0.36821872 -0.06547683 -0.43069673 -1.0668259 -0.029475834 0.062746905 0.06712547
0.82034826 0.24790305 0.5418347 -0.5431033 -0.12470001 -0.22198968 0.15811832 -0.2498728
0.15139273 0.5088615
